classification-and-regression/classification/mlp_net_model.onnx (onnx, 2746 bytes, 6 tensors)

linear1.weight f4 [15, 13]
0.36467126 0.14768068 -2.4097896 0.112849995 -0.1618759 0.09692438 0.14719056 -0.0027639745
0.0031565677 0.3887408 -0.06479527 0.08726939 0.0060704337 -0.12933587 0.4648037 -2.00962
-0.02184353 -0.180198 0.049722865 -0.038615488 -0.0511329 -0.22999123 -0.17190564 -0.0010297219
0.17157586 -0.73971254 -0.35916233 -0.6041373 -0.07347282 0.20705627 -0.12049433 -0.5816462
0.6217433 -0.6359797 0.101863585 -0.10491397 -0.19747819 -1.0286994 -0.097411595 0.0693212
0.25149786 -2.3741648 0.08921814 -0.17093976 -0.046430554 0.058590546 -0.11120857 -0.13199498
0.02041821 -0.06436974 0.14577796 -0.033287123 0.42047822 -0.15377426 -2.035135 -0.03799577
0.1447418 -0.016813993 -0.010607451 -0.13658394 0.08457876 0.38711292 0.0773074 0.13157003
-0.08406132 -0.60601324 -0.871375 -0.023422645 -0.12139051 -0.09414511 0.17869885 0.50045294
0.21930058 -0.22912487 -0.8620459 -0.24149816 -0.90125316 0.49566793 -0.28999054 -1.0011634
-0.08647645 -0.4492011 0.044953752 0.18839929 0.47108752 -0.43150082 -0.39318678 -0.06749673
-0.49910438 -0.73192716 0.46563622 -0.2620188 0.6350032 0.20905413 -0.28374442 -0.35620394
-0.21679933 0.32442927 0.09972401 0.33549875 -0.22818106 -0.16374774 -0.33799815 0.24560809
-0.14886723 -0.33286703 -0.008875156 -0.2194131 0.24237175 0.3379359 -0.048713796 0.7054911
-0.3740043 0.23118721 0.05644825 0.07473746 0.23385878 0.19418204 0.32856986 -2.3821774
-0.0014666121 0.029440314 0.03478004 0.0810715 -0.09463609 -0.12422484 -0.014391735 0.014528378
-0.038935192 -0.37577996 -0.5595269 -0.42719296 0.2274584 -0.095028706 -0.4058468 0.1550907
0.6405671 0.38566613 -0.13183866 -0.6924505 -0.4238487 0.18015683 0.27797255 -0.13172022
-0.13853979 0.09461242 0.5858809 0.30237827 -0.29798 -0.25625157 0.400906 0.44061482
0.0050684256 0.08530567 -0.4855421 -0.023662986 -0.51183766 0.3536982 0.17578964 0.25665417
-0.26361293 0.35604018 0.0993721 0.026688047 -0.45877746 0.606946 -0.016686162 0.29987842
-0.75011086 -0.06470188 -0.73953134 0.07725213 -0.1430551 0.046500698 -0.3175008 0.42802584
-0.36179364 -0.49924418 -0.6725031 -0.32672969 0.19359042 0.22881183 -0.90497637 0.67994577
0.12866634 -0.21496807 -0.13157505 0.13224062 0.3346032 -0.27775458 -0.13524237 0.23461235
0.04048753 -0.09035148 -0.8430997
00000000: 31b6 ba3e 9b39 173e fe39 1ac0 e61d e73d
00000010: ccc2 25be 4a80 c63d 1fb9 163e cc23 35bb
00000020: 6bde 4e3b 0909 c73e 62b3 84bd 4bba b23d
00000030: 7dea c63b 9f70 04be c0fa ed3e 9d9d 00c0
00000040: 34f1 b2bc d385 38be 34aa 4b3d 462b 1ebd
00000050: bb70 51bd d282 6bbe 0808 30be bcf7 86ba
00000060: 95b1 2f3e cd5d 3dbf 20e4 b7be bea8 1abf
00000070: eb78 96bd 8f06 543e bbc5 f6bd c4e6 14bf
00000080: 922a 1f3f 91cf 22bf db9d d03d 23dd d6bd
00000090: b937 4abe 6cac 83bf bb7f c7bd 46f8 8d3d
000000a0: 54c4 803e 51f2 17c0 00b8 b63d d50a 2fbe
000000b0: f72d 3ebd a4fc 6f3d 52c1 e3bd b129 07be
000000c0: 1744 a73c 48d4 83bd d146 153e 1458 08bd
000000d0: ec48 d73e 0077 1dbe a73f 02c0 74a1 1bbd
000000e0: 3237 143e 80bd 89bc e0ca 2dbc a9dc 0bbe
000000f0: a137 ad3d aa33 c63e 5853 9e3d 4bba 063e
00000100: 5728 acbd af23 1bbf 6f12 5fbf d9e0 bfbc
00000110: 969b f8bd 27cf c0bd d5fc 363e af1d 003f
00000120: 5590 603e b69f 6abe 0aaf 5cbf 4b4b 77be
00000130: 87b8 66bf 30c8 fd3e a479 94be 1f26 80bf
00000140: 911a b1bd b0fd e5be 6d21 383d beeb 403e
00000150: 6232 f13e aded dcbe c74f c9be ba3b 8abd
00000160: 9c8a ffbe 945f 3bbf df67 ee3e 5427 86be
00000170: 928f 223f 4912 563e f346 91be 5d60 b6be
00000180: a500 5ebe 981b a63e 1a3c cc3d 7ec6 ab3e
00000190: 4ca8 69be 7dad 27be 180e adbe b080 7b3e
000001a0: a770 18be 8c6d aabe 1a69 11bc d4ad 60be
000001b0: 4d30 783e ef05 ad3e 1e88 47bd 119b 343f
000001c0: 7e7d bfbe 57bc 6c3e 4836 673d f40f 993d
000001d0: ad78 6f3e a8d7 463e 4f3a a83e 9875 18c0
000001e0: 563b c0ba d02c f13c 8475 0e3d d108 a63d
000001f0: 91d0 c1bd 9869 febd 50cb 6bbc 6f08 6e3c
00000200: 827a 1fbd 3b66 c0be 283d 0fbf 09b9 dabe
00000210: dbea 683e 699e c2bd 27cb cfbe 19d0 1e3e
00000220: 35fc 233f 0876 c53e b700 07be 7044 31bf
00000230: b202 d9be 087b 383e 6b52 8e3e aae1 06be
00000240: 60dd 0dbe 28c4 c13d 4afc 153f 53d1 9a3e
00000250: d690 98be 6833 83be 8d43 cd3e 4498 e13e
00000260: 0915 a63b bdb4 ae3d f998 f8be e1d8 c1bc
00000270: cb07 03bf ee17 b53e 3302 343e 2d68 833e
00000280: 46f8 86be e64a b63e 9983 cb3d e4a0 da3c
00000290: e1e4 eabe d060 1b3f 6bb1 88bc aa89 993e
000002a0: 4407 40bf 6b82 84bd ed51 3dbf 5d36 9e3d
000002b0: 097d 12be 8477 3e3d 778f a2be 3426 db3e
000002c0: 043d b9be ef9c ffbe 2a29 2cbf 1d49 a7be
000002d0: 913c 463e a64d 6a3e 88ac 67bf ed10 2e3f
000002e0: 1cc1 033e 9720 5cbe 9cbb 06be 166a 073e
000002f0: 1c51 ab3e d935 8ebe fa7c 0abe 383e 703e
00000300: 41d6 253d 320a b9bd 62d5 57bf

linear1.bias f4 [15]
-0.9159263 -0.9996936 -0.8777168 -0.7309126 -1.0294223 -0.91144234 -0.9273793 -1.1235131
-1.1980094 -0.85206705 -1.1602628 -1.1849604 -0.67552125 -1.2576816 -0.8280199
00000000: 257a 6abf ebeb 7fbf 0cb2 60bf 171d 3bbf
00000010: 1cc4 83bf 4954 69bf bb68 6dbf 47cf 8fbf
00000020: 5f58 99bf 1121 5abf 7e83 94bf c8ac 97bf
00000030: f6ee 2cbf b6fb a0bf 1df9 53bf

linear2.weight f4 [9, 15]
0.28183898 0.66929317 -0.31633332 0.2188621 0.065971695 -1.9958252 -1.4014332 0.5717835
-1.226599 0.34002635 -1.6013862 -0.1589926 0.005311215 -0.29206792 -0.020454511 -2.468225
-1.2178528 0.1111584 -1.9990844 -0.8750114 0.1587273 0.16324814 -0.5509881 0.3250507
-2.8579755 0.57087606 0.5624001 -0.5909675 1.6165695 -1.863967 -3.1325986 -0.790745
0.084212534 -0.25387317 -2.0723474 -0.022148794 0.41807523 -1.2740242 0.8643009 -0.6838235
-0.085192405 0.0878541 -0.21157192 1.3516337 -0.103620976 0.19069749 0.38889912 -0.49780333
0.61049074 0.24507776 -1.7961032 -2.4188101 0.49922937 0.056362025 0.5583777 -1.2499964
-0.19107416 -0.14050524 -1.1328071 -0.038440917 -2.676874 -1.4545279 0.040709253 -1.823429
-1.2940217 0.14718734 0.27478302 0.020357791 0.342478 -1.7522501 0.21611606 0.2547573
-0.60062265 1.4338707 -0.9207209 -1.8221486 -1.0236915 0.049480468 -1.0812485 -0.82047504
0.07678405 0.103818685 -0.5032658 0.25689453 -2.696157 0.6268463 0.5432433 -0.50373805
1.6292698 -1.9200889 0.009675087 0.7077565 -1.3006392 0.50237244 0.8111934 -2.54897
-1.9734185 0.79992485 -0.2092932 0.0038340553 -2.2894459 -0.63691384 -0.008214408 -1.5113626
0.061221458 -0.07684191 0.71775204 -1.4383754 0.77926975 0.8978271 -2.336935 -2.0753803
0.60985 -0.04288397 0.27032062 -1.7126249 -0.9780194 -0.010654845 -1.7397873 0.042460512
-0.018672165 0.9272674 -0.82626283 0.09923322 0.41797882 -2.564404 -2.1600103 0.18251297
-0.06727881 0.50022733 -0.7621927 -2.4165282 0.0011847625 -1.2242966 0.07825028
00000000: 334d 903e cc56 2b3f 71f6 a1be 631d 603e
00000010: 2b1c 873d 3377 ffbf 2a62 b3bf 6760 123f
00000020: 3201 9dbf ef17 ae3e 39fa ccbf f5ce 22be
00000030: b309 ae3b ed89 95be 3890 a7bc 66f7 1dc0
00000040: 9ae2 9bbf 04a7 e33d ffe1 ffbf bf00 60bf
00000050: 6989 223e 852a 273e 8e0d 0dbf 0c6d a63e
00000060: 12e9 36c0 ef24 123f 74f9 0f3f a549 17bf
00000070: c0eb ce3f 7896 eebf 7f7c 48c0 446e 4abf
00000080: 9f77 ac3d aafb 81be 57a1 04c0 6371 b5bc
00000090: f50d d63e 3a13 a3bf d342 5d3f 0f0f 2fbf
000000a0: 5b79 aebd daec b33d 4fa6 58be 5502 ad3f
000000b0: 3c37 d4bd 3446 433e c91d c73e 14e0 febe
000000c0: 1f49 1c3f aaf5 7a3e b6e6 e5bf c9cd 1ac0
000000d0: fe9a ff3e dedb 663d d7f1 0e3f e2ff 9fbf
000000e0: f2a8 43be 9be0 0fbe d3ff 90bf 3974 1dbd
000000f0: e751 2bc0 f82d babf bfbe 263d 1f66 e9bf
00000100: 81a2 a5bf 47b8 163e 5cb0 8c3e 62c5 a63c
00000110: 4759 af3e bb49 e0bf 874d 5d3e 8c6f 823e
00000120: 68c2 19bf 1389 b73f 5db4 6bbf 2a3c e9bf
00000130: 5308 83bf 08ac 4a3d 5a66 8abf a70a 52bf
00000140: f540 9d3d e49e d43d 07d6 00bf ae87 833e
00000150: d68d 2cc0 0079 203f fe11 0b3f faf4 00bf
00000160: ea8b d03f 79c5 f5bf 4284 1e3c 882f 353f
00000170: 587b a6bf 7b9b 003f 5faa 4f3f 5322 23c0
00000180: fa98 fcbf e0c7 4c3f f550 56be c644 7b3b
00000190: 4886 12c0 c90c 23bf b995 06bc 5474 c1bf
000001a0: 5ac3 7a3d 4b5f 9dbd 99be 373f af1c b8bf
000001b0: 397e 473f ffd7 653f 5890 15c0 08d3 04c0
000001c0: 211f 1c3f 1aa7 2fbd 7767 8a3e 4b37 dbbf
000001d0: 7b5f 7abf a991 2ebc 5ab1 debf 13eb 2d3d
000001e0: 5ef6 98bc 6561 6d3f f685 53bf c93a cb3d
000001f0: 5201 d63e 321f 24c0 9c3d 0ac0 aee4 3a3e
00000200: 79c9 89bd e60e 003f 101f 43bf 66a8 1ac0
00000210: 084a 9b3a c0b5 9cbf af41 a03d

linear2.bias f4 [9]
0.019722149 0.078291304 0.073448315 -0.0129702715 0.09396288 0.076791 0.027392354 0.021208877
0.051604845
00000000: 5890 a13c 3157 a03d 126c 963d 4381 54bc
00000010: 9c6f c03d 9a44 9d3d ee65 e03c 3dbe ad3c
00000020: 9a5f 533d

linear3.weight f4 [2, 9]
1.4712125 -5.07851 -1.6393754 2.29049 -3.4388268 -5.1729617 3.5727773 4.0265255
3.4212961 -1.3340517 5.031518 1.9180797 -2.0174954 3.5760653 5.140805 -3.4894695
-3.7962315 -3.6219637
00000000: b150 bc3f 2783 a2c0 0ed7 d1bf 6397 1240
00000010: bd15 5cc0 e788 a5c0 62a8 6440 4cd9 8040
00000020: 84f6 5a40 35c2 aabf 3202 a140 a383 f53f
00000030: a51e 01c0 41de 6440 7981 a440 7853 5fc0
00000040: 75f5 72c0 41ce 67c0

linear3.bias f4 [2]
0.1314961 0.11275844
00000000: eaa6 063e e6ed e63d
